…
   Param #     Connected to                     \n","==================================================================================================\n","input_basic (InputLayer)        [(None, 384, 1)]     0                                            \n","__________________________________________________________________________________________________\n","input_compar (InputLayer)       [(None, 384, 1)]     0                                            \n","__________________________________________________________________________________________________\n","conv1d_42 (Conv1D)              (None, 370, 20)      320         input_basic[0][0]                \n","__________________________________________________________________________________________________\n","conv1d_45 (Conv1D)              (None, 370, 20)      320         input_compar[0][0]               \n","__________________________________________________________________________________________________\n","max_pooling1d_42 (MaxPooling1D) (None, 185, 20)      0           conv1d_42[0][0]                  \n","__________________________________________________________________________________________________\n","max_pooling1d_45 (MaxPooling1D) (None, 185, 20)      0           conv1d_45[0][0]                  \n","__________________________________________________________________________________________________\n","conv1d_43 (Conv1D)              (None, 183, 15)      915         max_pooling1d_42[0][0]           \n","__________________________________________________________________________________________________\n","conv1d_46 (Conv1D)              (None, 183, 15)      915         max_pooling1d_45[0][0]           \n","__________________________________________________________________________________________________\n","max_pooling1d_43 (MaxPooling1D) (None, 91, 15)       0           conv1d_43[0][0]                  \n","__________________________________________________________________________________________________\n","max_pooling1d_46 (MaxPooling1D) (None, 91, 15)       0           conv1d_46[0][0]                  \n","__________________________________________________________________________________________________\n","conv1d_44 (Conv1D)              (None, 89, 8)        368         max_pooling1d_43[0][0]           \n","__________________________________________________________________________________________________\n","conv1d_47 (Conv1D)              (None, 89, 8)        368         max_pooling1d_46[0][0]           \n","__________________________________________________________________________________________________\n","max_pooling1d_44 (MaxPooling1D) (None, 44, 8)        0           conv1d_44[0][0]                  \n","__________________________________________________________________________________________________\n","max_pooling1d_47 (MaxPooling1D) (None, 44, 8)        0           conv1d_47[0][0]                  \n","__________________________________________________________________________________________________\n","flatten_14 (Flatten)            (None, 352)          0           max_pooling1d_44[0][0]           \n","__________________________________________________________________________________________________\n","flatten_15 (Flatten)            (None, 352)          0           max_pooling1d_47[0][0]           \n","__________________________________________________________________________________________________\n","dense_basic (Dense)             (None, 20)           7060        flatten_14[0][0]                 \n","__________________________________________________________________________________________________\n","dense_compar (Dense)            (None, 20)           7060        flatten_15[0][0]                 \n","__________________________________________________________________________________________________\n","tf_op_layer_dense_concat_7 (Ten [(None, 40)]         0           dense_basic[0][0]                \n","                                                                 dense_compar[0][0]               \n","__________________________________________________________________________________________________\n","DENSE_FC0 (Dense)               (None, 20)           820         tf_op_layer_dense_concat_7[0][0] \n","__________________________________________________________________________________________________\n","DENSE_FC1 (Dense)               (None, 10)           210         DENSE_FC0[0][0]                  \n","__________________________________________________________________________________________________\n","OUTPUT_FC (Dense)               (None, 2)            22          DENSE_FC1[0][0]                  \n","==================================================================================================\n","Total params: 18,378\n","Trainable params: 18,378\n","Non-trainable params: 0\n","__________________________________________________________________________________________________\n","None\n","Train on 40800 samples\n","Epoch 1/300\n","40800/40800 
…
