…
   Param #     Connected to                     \n","==================================================================================================\n","input_basic (InputLayer)        [(None, 384, 1)]     0                                            \n","__________________________________________________________________________________________________\n","input_compar (InputLayer)       [(None, 384, 1)]     0                                            \n","__________________________________________________________________________________________________\n","conv1d_96 (Conv1D)              (None, 370, 20)      320         input_basic[0][0]                \n","__________________________________________________________________________________________________\n","conv1d_99 (Conv1D)              (None, 370, 20)      320         input_compar[0][0]               \n","__________________________________________________________________________________________________\n","max_pooling1d_96 (MaxPooling1D) (None, 185, 20)      0           conv1d_96[0][0]                  \n","__________________________________________________________________________________________________\n","max_pooling1d_99 (MaxPooling1D) (None, 185, 20)      0           conv1d_99[0][0]                  \n","__________________________________________________________________________________________________\n","conv1d_97 (Conv1D)              (None, 183, 15)      915         max_pooling1d_96[0][0]           \n","__________________________________________________________________________________________________\n","conv1d_100 (Conv1D)             (None, 183, 15)      915         max_pooling1d_99[0][0]           \n","__________________________________________________________________________________________________\n","max_pooling1d_97 (MaxPooling1D) (None, 91, 15)       0           conv1d_97[0][0]                  \n","__________________________________________________________________________________________________\n","max_pooling1d_100 (MaxPooling1D (None, 91, 15)       0           conv1d_100[0][0]                 \n","__________________________________________________________________________________________________\n","conv1d_98 (Conv1D)              (None, 89, 8)        368         max_pooling1d_97[0][0]           \n","__________________________________________________________________________________________________\n","conv1d_101 (Conv1D)             (None, 89, 8)        368         max_pooling1d_100[0][0]          \n","__________________________________________________________________________________________________\n","max_pooling1d_98 (MaxPooling1D) (None, 44, 8)        0           conv1d_98[0][0]                  \n","__________________________________________________________________________________________________\n","max_pooling1d_101 (MaxPooling1D (None, 44, 8)        0           conv1d_101[0][0]                 \n","__________________________________________________________________________________________________\n","flatten_32 (Flatten)            (None, 352)          0           max_pooling1d_98[0][0]           \n","__________________________________________________________________________________________________\n","flatten_33 (Flatten)            (None, 352)          0           max_pooling1d_101[0][0]          \n","__________________________________________________________________________________________________\n","dense_basic (Dense)             (None, 20)           7060        flatten_32[0][0]                 \n","__________________________________________________________________________________________________\n","dense_compar (Dense)            (None, 20)           7060        flatten_33[0][0]                 \n","__________________________________________________________________________________________________\n","input_tempo (InputLayer)        [(None, 2)]          0                                            \n","__________________________________________________________________________________________________\n","tf_op_layer_dense_concat_16 (Te [(None, 42)]         0           dense_basic[0][0]                \n","                                                                 dense_compar[0][0]               \n","                                                                 input_tempo[0][0]                \n","__________________________________________________________________________________________________\n","DENSE_FC0 (Dense)               (None, 20)           860         tf_op_layer_dense_concat_16[0][0]\n","__________________________________________________________________________________________________\n","DENSE_FC1 (Dense)               (None, 10)           210         DENSE_FC0[0][0]                  \n","__________________________________________________________________________________________________\n","OUTPUT_FC (Dense)               (None, 2)            22          DENSE_FC1[0][0]                  \n","==================================================================================================\n","Total params: 18,418\n","Trainable params: 18,418\n","Non-trainable params: 0\n","__________________________________________________________________________________________________\n","None\n","Train on 40800 samples\n","Epoch 1/300\n","40800/40800 
…
