…
   Param #     Connected to                     \n","==================================================================================================\n","input_basic (InputLayer)        [(None, 384, 1)]     0                                            \n","__________________________________________________________________________________________________\n","input_compar (InputLayer)       [(None, 384, 1)]     0                                            \n","__________________________________________________________________________________________________\n","conv1d (Conv1D)                 (None, 382, 20)      80          input_basic[0][0]                \n","__________________________________________________________________________________________________\n","conv1d_3 (Conv1D)               (None, 382, 20)      80          input_compar[0][0]               \n","__________________________________________________________________________________________________\n","max_pooling1d (MaxPooling1D)    (None, 191, 20)      0           conv1d[0][0]                     \n","__________________________________________________________________________________________________\n","max_pooling1d_3 (MaxPooling1D)  (None, 191, 20)      0           conv1d_3[0][0]                   \n","__________________________________________________________________________________________________\n","conv1d_1 (Conv1D)               (None, 189, 15)      915         max_pooling1d[0][0]              \n","__________________________________________________________________________________________________\n","conv1d_4 (Conv1D)               (None, 189, 15)      915         max_pooling1d_3[0][0]            \n","__________________________________________________________________________________________________\n","max_pooling1d_1 (MaxPooling1D)  (None, 94, 15)       0           conv1d_1[0][0]                   \n","__________________________________________________________________________________________________\n","max_pooling1d_4 (MaxPooling1D)  (None, 94, 15)       0           conv1d_4[0][0]                   \n","__________________________________________________________________________________________________\n","conv1d_2 (Conv1D)               (None, 92, 8)        368         max_pooling1d_1[0][0]            \n","__________________________________________________________________________________________________\n","conv1d_5 (Conv1D)               (None, 92, 8)        368         max_pooling1d_4[0][0]            \n","__________________________________________________________________________________________________\n","max_pooling1d_2 (MaxPooling1D)  (None, 46, 8)        0           conv1d_2[0][0]                   \n","__________________________________________________________________________________________________\n","max_pooling1d_5 (MaxPooling1D)  (None, 46, 8)        0           conv1d_5[0][0]                   \n","__________________________________________________________________________________________________\n","flatten (Flatten)               (None, 368)          0           max_pooling1d_2[0][0]            \n","__________________________________________________________________________________________________\n","flatten_1 (Flatten)             (None, 368)          0           max_pooling1d_5[0][0]            \n","__________________________________________________________________________________________________\n","dense_basic (Dense)             (None, 20)           7380        flatten[0][0]                    \n","__________________________________________________________________________________________________\n","dense_compar (Dense)            (None, 20)           7380        flatten_1[0][0]                  \n","__________________________________________________________________________________________________\n","tf_op_layer_dense_concat (Tenso [(None, 40)]         0           dense_basic[0][0]                \n","                                                                 dense_compar[0][0]               \n","__________________________________________________________________________________________________\n","DENSE_FC0 (Dense)               (None, 20)           820         tf_op_layer_dense_concat[0][0]   \n","__________________________________________________________________________________________________\n","DENSE_FC1 (Dense)               (None, 10)           210         DENSE_FC0[0][0]                  \n","__________________________________________________________________________________________________\n","OUTPUT_FC (Dense)               (None, 2)            22          DENSE_FC1[0][0]                  \n","==================================================================================================\n","Total params: 18,538\n","Trainable params: 18,538\n","Non-trainable params: 0\n","__________________________________________________________________________________________________\n","None\n","Train on 12586 samples\n","Epoch 1/300\n","12586/12586 
…
